data.pth (torch, 5418 bytes, 6 tensors)

l1.weight f4 [8, 54]
0	0x3dabb44c	0.08383998
1	0xbdbf8ace	-0.09352647
2	0xbca260b0	-0.019821495
3	0xbdcbbe27	-0.09948378
4	0xbdffb86d	-0.12486348
5	0xbc802224	-0.01564128
6	0xbd15b7fc	-0.036552414
7	0xbd4310b2	-0.047623344
8	0xbdbc5baa	-0.09197171
9	0xbdf66073	-0.12030115
10	0x3db58bca	0.08864553
11	0xbbde14c2	-0.006777377
12	0xbdaa8852	-0.08326782
13	0xbb1bc880	-0.002377063
14	0xbd9ff9f2	-0.07811345
15	0x3d562c68	0.052288443
16	0xbc3851e0	-0.011249989
17	0x3c747d80	0.0149225
18	0xbd9ec8c4	-0.07753137
19	0xbded4d64	-0.11587027
20	0x3c815f60	0.015792549
21	0x3df60fe8	0.120147526
22	0x3dcc23a4	0.099677354
23	0x3d369ca2	0.04458297
24	0x3c9eed98	0.019400403
25	0x3de4ad6a	0.111658886
26	0xbe02491e	-0.12723204
27	0x3de1161e	0.10990547
28	0xbde4c0be	-0.11169575
29	0xbda71cac	-0.081597656
30	0x3dae83fc	0.08521268
31	0x3d411409	0.047138248
32	0xbbfe88e0	-0.0077677816
33	0x3b8eb680	0.004355252
34	0x3d22b9b0	0.039727867
35	0xbdec9c8a	-0.11553295
36	0x3d6b1268	0.0573906
37	0x3d3314e8	0.04372111
38	0xbdffdee3	-0.12493684
39	0x3dadad9c	0.08480379
40	0x3c996cd8	0.018728659
41	0xbd2e38d6	-0.04253467
42	0x3d29b7b1	0.041434947
43	0xbd9fce1f	-0.07802986
44	0x3cd91451	0.026498945
45	0x3d82fa70	0.063954234
46	0x3dd0fab4	0.10204068
47	0x3c02cc50	0.007983282
48	0x3d3334b8	0.04375145
49	0xbd73ceb4	-0.0595233
50	0x3df53c9c	0.11974451
51	0xbd91e4f6	-0.07123749
52	0x3deea18c	0.11651906
53	0xbdea9ee9	-0.11456091
54	0x3b36c8b2	0.002789062
55	0xbee5c4f1	-0.44876817
56	0x3f485576	0.78255403
57	0xbe9caac1	-0.30599025
58	0x3e9016bb	0.28142342
59	0x3f48bf15	0.7841657
60	0x3f15f818	0.58581686
61	0x3f2cd28e	0.6750878
62	0x3f446cab	0.76728314
63	0x3f308021	0.6894551
64	0xbe6cd443	-0.23127846
65	0x3ed2bc5a	0.41159326
66	0x3ef2ce7d	0.47423163
67	0x3f5c6142	0.86085904
68	0xbe0f9db1	-0.14024998
69	0x3e61b9e8	0.22043574
70	0xbea1bc4f	-0.3158898
71	0x3f5725db	0.8404214
72	0x3cd52a49	0.02602114
73	0xbf0c1551	-0.54720026
74	0x3e12629a	0.14295426
75	0xbf0c1608	-0.54721117
76	0xbf0c0f64	-0.54710984
77	0xbf39bc77	-0.725532
78	0x3f13eeaa	0.5778605
79	0xbec5ae43	-0.38609514
80	0x3e82e698	0.25566554
81	0xbeb66ec4	-0.35631382
82	0x3ea859b6	0.32880944
83	0xbed8524a	-0.42250282
84	0x3edbae0d	0.42906228
85	0x3f1f4f38	0.62230253
86	0x3f179dbc	0.5922506
87	0x3f207a5c	0.62686706
88	0xbd6582ac	-0.05603282
89	0x3e433460	0.19062948
90	0x3e886f9a	0.26647645
91	0x3f4ac064	0.79199815
92	0x3ee4d256	0.44691724
93	0x3f099c65	0.53754264
94	0x3ef3d685	0.47624603
95	0xbe6ac8fd	-0.22928233
96	0x3efabe60	0.4897337
97	0xbe539441	-0.20662023
98	0x3f52b202	0.8230287
99	0xbe1439d4	-0.14475185
100	0xbd2172e4	-0.03941621
101	0x3dd53e0a	0.10412224
102	0x3e156dc4	0.14592654
103	0x3c1d1caf	0.009589358
104	0x3e75b287	0.23993884
105	0x3e2018ac	0.15634412
106	0x3ef62362	0.4807387
107	0x3eafef98	0.34362483
108	0xbea982c0	-0.33107567
109	0x3ee502a5	0.4472858
110	0x3e1f11c5	0.15534122
111	0x3ec4d69f	0.38444993
112	0x3f0a65ea	0.5406176
113	0x3f41041c	0.75396895
114	0x3e74197b	0.23837845
115	0x3eb96d43	0.36216173
116	0x3e036acd	0.1283371
117	0x3ebbf3f7	0.36709568
118	0x3f0f17de	0.55895793
119	0xbedeaa54	-0.43489325
120	0xbba7fa8b	-0.0051263026
121	0xbecb165e	-0.39665502
122	0x3ef6a00a	0.48168975
123	0xbde8fb76	-0.11376087
124	0x3f1c7481	0.6111527
125	0x3f1c7a39	0.61123997
126	0xbebee519	-0.37284163
127	0x3f2972b6	0.6619066
128	0xbe6fb661	-0.23409416
129	0x3f590aa4	0.8478186
130	0x3f4c6403	0.79840106
131	0x3eb868c1	0.3601742
132	0x3e1b2728	0.15151656
133	0x3f1b781d	0.60730153
134	0xbea51450	-0.3224206
135	0x3f3fa758	0.7486472
136	0xbeba769c	-0.36418617
137	0x3f0b3f54	0.54393506
138	0x3ef82ceb	0.4847177
139	0xbebbfeb8	-0.36717772
140	0xbe875966	-0.26435393
141	0x3e847c50	0.25876093
142	0x3f227552	0.63460267
143	0xbe9b7247	-0.30360624
144	0xbedadfb4	-0.42748797
145	0x3e323c31	0.17405774
146	0x3e47a105	0.19495018
147	0x3e3a467c	0.1819095
148	0x3eee4b15	0.46541658
149	0xbec2a5dd	-0.3801717
150	0xbede9444	-0.43472493
151	0x3ee86b4a	0.45394355
152	0xbd0c0dd6	-0.034192882
153	0x3f30d718	0.69078207
154	0xbf1b1d23	-0.60591334
155	0xbe791876	-0.24325737
156	0x3e71d79e	0.23617408
157	0xbf09179c	-0.5355165
158	0xbe2abb4a	-0.16673008
159	0xbe61dff9	-0.22058095
160	0x3ec0f599	0.37687376
161	0x3d45e2ee	0.04831212
162	0x3ec5b875	0.38617292
163	0x3f1d4ec3	0.61448306
164	0x3f0afc5d	0.54291326
165	0x3e1561b8	0.14588058
166	0x3ea5a5eb	0.32353148
167	0x3f4d6026	0.80224836
168	0x3e962b30	0.29329824
169	0x3f067234	0.5251801
170	0x3eb7abc0	0.35873222
171	0x3eebb533	0.46036682
172	0x3d7f3a3b	0.062311392
173	0xbe8eb29d	-0.27870646
174	0xbddd59e9	-0.108081646
175	0xbe6527ba	-0.22378436
176	0x3f04dd83	0.519005
177	0xbe573f19	-0.21020164
178	0x3e456c14	0.1927951
179	0x3f289d98	0.6586547
180	0xbebf6921	-0.37384894
181	0x3ba222c8	0.004947994
182	0x3eafe5c2	0.3435498
183	0x3d8adfa0	0.06780934
184	0x3cc64870	0.024204463
185	0xbe41e496	-0.18934855
186	0x3d3956c2	0.045248754
187	0x3e528c03	0.20561223
188	0xbec92d47	-0.39292356
189	0x3f37868a	0.71689665
190	0xbe855f48	-0.26049256
191	0x3f0824e4	0.5318129
192	0x3f23922d	0.6389492
193	0xbe7a71b1	-0.24457432
194	0x3e254bca	0.16142192
195	0x3efb15b9	0.4904001
196	0x3f0dff4e	0.5546769
197	0xbe30048f	-0.17189239
198	0xbe65800c	-0.22412127
199	0x3e5783b5	0.21046336
200	0x3f0074d5	0.5017827
201	0x3e8f24e6	0.2795784
202	0x3f3a05ff	0.726654
203	0xbf15681e	-0.58361995
204	0xbe8eb0b9	-0.27869204
205	0x3ee3c639	0.4448717
206	0x3da9f8be	0.08299397
207	0x3ed01be1	0.4064627
208	0x3ec68abc	0.3877772
209	0x3ef5a838	0.47979903
210	0x3e44011d	0.1914105
211	0xbefbc6b0	-0.49175024
212	0xbe04cf54	-0.12969714
213	0xbec052c7	-0.37563154
214	0x3eb55cea	0.3542245
215	0x3ecb5cca	0.3971923
216	0xbda067fc	-0.078323334
217	0xbe88f5e5	-0.26750103
218	0x3f3c1d17	0.7348189
219	0x3ec0ea57	0.37678787
220	0x3ef8e0be	0.48608965
221	0xbe2ecc22	-0.17070058
222	0x3efd209c	0.4943894
223	0x3ed534f8	0.41641974
224	0x3f3db7b0	0.7410841
225	0x3ef2ed1e	0.4744653
226	0x3e67bd3b	0.2263078
227	0x3f10717a	0.5642315
228	0x3eb0e06d	0.34546223
229	0x3f1014fe	0.5628203
230	0xbdd910e4	-0.10598925
231	0x3eb4fa06	0.35347003
232	0x3ee35ac5	0.4440519
233	0xbe554016	-0.20825228
234	0xbe94842a	-0.29007083
235	0x3f16ae3e	0.5885962
236	0xbe676137	-0.22595678
237	0x3f019341	0.50615317
238	0x3eebd97f	0.46064374
239	0x3e8ca947	0.27472898
240	0x3ee14f9a	0.44006044
241	0x3e86adbb	0.2630442
242	0xbe08529b	-0.13312761
243	0xbe29696e	-0.16544124
244	0xbc117ecf	-0.008880331
245	0xbece1fbc	-0.40258586
246	0x3de53111	0.11190999
247	0x3ef42567	0.47684786
248	0xbdd7d07b	-0.10537811
249	0x3f1baef1	0.60813814
250	0xbe0b519e	-0.13605353
251	0x3eff5678	0.49870658
252	0xbe190bbb	-0.14945881
253	0x3f5015dd	0.8128336
254	0x3f143b03	0.57902545
255	0x3f13a199	0.57668453

l1.bias f4 [8]
0	0xbe2cf3a5	-0.16889818
1	0x3f0c1243	0.54715365
2	0x3f5f66da	0.87266314
3	0x3f5a761e	0.8533648
4	0x3f000609	0.5000921
5	0x3f12093c	0.5704534
6	0x3f1d98b5	0.6156114
7	0x3ef8fcdf	0.48630425

l2.weight f4 [8, 8]
0	0x3e95384d	0.29144517
1	0xbf8c7dfb	-1.0975946
2	0x3f99ffce	1.203119
3	0x3ee91df5	0.45530668
4	0x3f0de86e	0.55432785
5	0x3f8dd1bd	1.1079632
6	0x3f690436	0.9102205
7	0xbfb18824	-1.3869672
8	0x3e90ce8d	0.28282586
9	0x3f426840	0.7594032
10	0xbfb10791	-1.3830434
11	0xbec9c376	-0.39406937
12	0x3ea8df69	0.32982948
13	0x3f44ba84	0.768471
14	0x3f853afc	1.0408626
15	0x3f77b00c	0.96753
16	0xbd0e0d72	-0.03468079
17	0x3de791d4	0.113071114
18	0x3eea0368	0.45705724
19	0x3f948850	1.1604099
20	0xbf53adc4	-0.8268702
21	0xbfa78aab	-1.3089193
22	0x3c98fcea	0.018675286
23	0x3f17eda0	0.5934696
24	0xbe23c2fc	-0.1599235
25	0x3f93bcba	1.154197
26	0x3e736ed6	0.2377275
27	0x3f170556	0.58992517
28	0x3f8786df	1.0588034
29	0x3f66fc7a	0.90229
30	0xbf6b1f46	-0.91844594
31	0xbeb3de0d	-0.3513035
32	0xbc2f64c0	-0.010705173
33	0x3dc28fd0	0.09500086
34	0xbe957685	-0.29191986
35	0xbe69d8e0	-0.22836637
36	0xbe20de8d	-0.15709896
37	0x3e1eb6da	0.1549944
38	0xbe72d92c	-0.23715657
39	0xbe986057	-0.29761
40	0x3da3249f	0.07965969
41	0x3f338801	0.701294
42	0x3f6cf7df	0.9256572
43	0x3f87e644	1.0617146
44	0xbaa2a326	-0.0012408241
45	0xbd34baf2	-0.044123597
46	0xbf44dd0a	-0.7689978
47	0x3ec5fcc4	0.38669407
48	0xbe873044	-0.2640401
49	0x3f6ddd15	0.9291547
50	0x3eced9de	0.40400594
51	0x3e8874c2	0.2665158
52	0x3f89efc3	1.0776294
53	0x3ec83212	0.391007
54	0xbf46280b	-0.7740485
55	0xbcb54dad	-0.022131765
56	0x3e35d8a2	0.1775842
57	0xbe989464	-0.29800713
58	0xbe7ce5a6	-0.24696979
59	0xbe016b63	-0.12638621
60	0x3e4fa82e	0.20278999
61	0xbdbbd2f8	-0.091710985
62	0xbc0b5600	-0.008504391
63	0xbe130723	-0.14358191

l2.bias f4 [8]
0	0x3ef0327a	0.4691351
1	0x3f0b3efc	0.5439298
2	0x3f3897a2	0.72106373
3	0x3d9c8dfe	0.0764427
4	0xbd687960	-0.056756377
5	0x3f08db0b	0.53459233
6	0x3e081899	0.13290633
7	0xbe9d7117	-0.30750343

l3.weight f4 [7, 8]
0	0xbd132fba	-0.035934187
1	0x3e043595	0.12911065
2	0xbf7405f7	-0.953216
3	0x3ead1c30	0.33810568
4	0xbdddec78	-0.108361185
5	0xbf97aa75	-1.1848894
6	0x3eb822fb	0.35964188
7	0x3e53484a	0.20633045
8	0x3f1ea2a8	0.61966944
9	0xbfdba181	-1.7158662
10	0x3f1043d2	0.56353486
11	0xbf5bbeb5	-0.8583787
12	0xbd543d98	-0.051816553
13	0x3e5b72d6	0.21430525
14	0xbfbc6b74	-1.4720292
15	0xbe120ea0	-0.14263391
16	0xbf361374	-0.71123433
17	0xbfd158e2	-1.635525
18	0x3ed13f3c	0.40868556
19	0x3e929c52	0.28634888
20	0xbeb45d7a	-0.35227567
21	0x3ef92ac2	0.48665434
22	0x3e52b603	0.20577244
23	0xbda2f7bc	-0.07957408
24	0x3f8b60ce	1.0888917
25	0xbf91936e	-1.1373117
26	0xbfba9415	-1.4576441
27	0x3e273283	0.16327862
28	0x3e87668f	0.26445433
29	0x3de36a36	0.111042425
30	0xbe038f1b	-0.12847559
31	0xbe234a8a	-0.15946403
32	0xbf778aab	-0.96695966
33	0x3f73abac	0.95183825
34	0xbfc3fdc4	-1.5311818
35	0xbf369033	-0.7131378
36	0xbe9915e7	-0.29899523
37	0xbf1e93ff	-0.61944574
38	0xbf658230	-0.89651775
39	0x3e16704a	0.14691272
40	0xbe8fd143	-0.28089342
41	0xbf31d4a0	-0.69465065
42	0xbfc664d1	-1.5499517
43	0x3f29e352	0.6636249
44	0xbe5197df	-0.2046809
45	0x3eff7022	0.49890238
46	0x3e617833	0.22018509
47	0xbc73eda0	-0.014888197
48	0xbf90e3b1	-1.1319486
49	0x3db45de5	0.088069715
50	0x3f800108	1.0000315
51	0xbf845221	-1.0337564
52	0x3dddd090	0.10830796
53	0x3e6db9ce	0.2321541
54	0xbfce7804	-1.6130376
55	0xbe897524	-0.26847184

l3.bias f4 [7]
0	0xbd45c398	-0.048282236
1	0xbe4ac9c4	-0.1980353
2	0xbdaf9c4f	-0.085747354
3	0x3eea1528	0.45719266
4	0x3ebeb081	0.37244037
5	0xbf331385	-0.6995166
6	0x3eb05e2f	0.34446856
